MachineLearning/9 - other networks/CNN.pt (torch, 250839 bytes, 10 tensors)

conv1.weight f4 [6, 3, 5, 5]
-0.5166926 0.21628065 0.22790733 -0.04496497 -0.14911233 -0.16345231 0.10026263 0.076819524
-0.41145575 0.052307673 -0.40344235 -1.6121495 -1.6086029 -0.62747645 0.29374877 0.26407933
0.074066654 0.5026131 0.458516 0.12049396 0.16017377 1.0948778 0.8042589 0.5652577
0.13189632 0.08428076 0.6923655 0.5376976 0.1087154 -0.39534208 0.4200263 0.7352542
0.28939328 -0.21628207 -0.26990014 0.06196975 -1.1615958 -0.9819566 -0.21061467 0.3269492
0.30883253 0.07104914 0.53442574 0.38723084 -0.24207404 -0.46911654 0.6226233 0.45440257
-0.087767184 -0.594714 -0.3026082 0.029013298 0.066395685 -0.038831368 -0.13909182 0.24279942
0.524477 0.22407916 -0.075154305 0.13943283 0.14580625 -0.9737373 -1.1147621 -0.17732695
0.5446897 0.22584537 -0.011750347 0.29354656 0.38662773 0.056645047 -0.4127701 0.28103057
0.06729855 -0.18543907 -0.25757664 -0.016023602 -0.09663088 0.0030147857 0.4054674 0.10302498
-0.016161114 0.2625998 0.2586273 0.09392361 -0.047346506 0.1450532 0.3922297 0.24018493
-0.052970342 -0.12402091 0.087179005 0.38582817 0.41374436 -0.06807377 -0.11067942 -0.038366906
0.15920457 0.19406284 0.092122 -0.22971165 -0.20412992 -0.24101053 -0.24324994 0.048772477
-0.07056935 0.04764002 0.02535124 -0.13319689 -0.23896849 -0.37856585 0.11145743 0.41922423
-0.053238668 -0.5499033 -0.4324122 -0.008395095 0.17770661 0.008359097 -0.5758857 -0.3256821
0.037433613 -0.11113093 -0.18828413 -0.09540916 -0.4185931 -0.04606151 -0.05791584 -0.0090086395
0.2675625 0.2703857 0.24360794 0.32365167 -0.040074695 -0.22521065 -0.25429675 0.30178002
0.57426196 0.124703795 -0.6865128 -0.664735 0.4189733 0.61873996 0.4028249 -0.5412218
-0.69215107 0.2585902 0.42129478 0.36519322 0.17404965 -0.22316723 -0.18442869 0.20690037
0.77887094 0.56324065 0.042845946 -0.5213454 -0.7608664 -0.00408683 0.87731975 0.54957885
-0.03583573 -0.67378795 -0.9489409 0.09437018 0.6890763 -0.11312395 0.06659915 -0.4110272
-0.49276683 0.20945059 -0.42624724 -0.28361136 -0.051060487 -0.13689703 -0.079630055 -0.18772756
-0.04243623 0.32073686 0.2772331 -0.34756017 -0.31972 -0.9725629 -0.15356468 0.55310637
0.23007102 0.2583034 -0.4781907 -0.982057 -0.24739106 0.37659726 0.3515984 0.5695532
-0.49658373 -0.7226103 -0.25756606 -0.05174287 0.21467319 0.07887519 -0.43059435 -0.23611112
-0.025735807 0.17666903 0.23963024 -0.032142654 -0.44610986 0.14574797 -0.56879264 0.033504948
0.5415476 0.16007738 0.48642448 -0.11525951 -0.7447572 -0.089944154 0.3332887 0.41412413
0.5625046 -0.3069498 -0.5145756 -0.2158632 0.29687956 0.7571257 0.53454894 0.036869656
-0.027213266 -0.0036249938 0.59249014 0.2235289 0.45994234 0.41063625 -0.047900584 0.78236973
0.11004356 0.5030379 0.37031442 0.43246058 1.2042756 0.37902728 0.44812095 0.21593602
0.036041018 0.34729365 -0.6372832 -0.43278757 -0.52167684 -0.7631068 -0.35112527 -1.228149
-0.63957244 -0.7898848 -0.28356177 0.22036271 -0.28150162 -0.24392836 -0.30361742 -0.798198
00000000: f745 04bf ad78 5d3e 8a60 693e 302d 38bd
00000010: e7b0 18be 0b60 27be 7e56 cd3d 8e53 9d3d
00000020: 54aa d2be 9240 563d ff8f cebe ea5a cebf
00000030: b3e6 cdbf 4ca2 20bf 3d66 963e 6835 873e
00000040: 42b0 973d 41ab 003f 9cc2 ea3e 8ac5 f63d
00000050: 9804 243e f524 8c3f e9e3 4d3f bbb4 103f
00000060: d40f 073e 649b ac3d de3e 313f 8da6 093f
00000070: 2ea6 de3d 476a cabe b00d d73e 9f39 3c3f
00000080: 5b2b 943e 0c79 5dbe 5a30 8abe fed3 7d3d
00000090: 2caf 94bf 8261 7bbf 5fab 57be e365 a73e
000000a0: 4c1f 9e3e 3682 913d 20d0 083f 1f43 c63e
000000b0: 42e2 77be 0b30 f0be 3e64 1f3f 74a7 e83e
000000c0: 48bf b3bd 2d3f 18bf 76ef 9abe 4cad ed3c
000000d0: 76fa 873d a40d 1fbd 166e 0ebe 69a0 783e
000000e0: 2044 063f 0275 653e 80ea 99bd 7bc7 0e3e
000000f0: 3c4e 153e d946 79bf 86b0 8ebf 3295 35be
00000100: c970 0b3f 0244 673e 8784 40bc bc4b 963e
00000110: 12f4 c53e a304 683d 9a56 d3be 3de3 8f3e
00000120: d2d3 893d bde3 3dbe 16e1 83be ee43 83bc
00000130: 69e6 c5bd b693 453b 6c99 cf3e c3fe d23d
00000140: 5064 84bc 7b73 863e cc6a 843e 065b c03d
00000150: 69ee 41bd d388 143e 55d2 c83e 0af3 753e
00000160: 6ef7 58bd adfe fdbd e88a b23d 458b c53e
00000170: 4dd6 d33e 436a 8bbd e4ab e2bd 9e26 1dbd
00000180: 8606 233e 69b8 463e 76aa bc3d 8839 6bbe
00000190: 6f07 51be 77cb 76be 8316 79be a6c5 473d
000001a0: aa86 90bd 2e22 433d 67ad cf3c c464 08be
000001b0: 28b4 74be 62d3 c1be cb43 e43d 8fa4 d63e
000001c0: ca10 5abd 76c6 0cbf 2265 ddbe 958b 09bc
000001d0: b9f8 353e 98f4 083c 3f6d 13bf cebf a6be
000001e0: fd53 193d 9d98 e3bd 8ecd 40be e165 c3bd
000001f0: d651 d6be feaa 3cbd 2939 6dbd f998 13bc
00000200: f4fd 883e ff6f 8a3e 5c74 793e acb5 a53e
00000210: 5d25 24bd 9f9d 66be 2f33 82be e982 9a3e
00000220: d502 133f b464 ff3d 4ebf 2fbf 132c 2abf
00000230: ab83 d63e be65 1e3f 113f ce3e 838d 0abf
00000240: d030 31bf ef65 843e f3b3 d73e 9bfa ba3e
00000250: 123a 323e f385 64be e0da 3cbe b1dd 533e
00000260: 1664 473f 8a30 103f 3b7f 2f3d e476 05bf
00000270: 24c8 42bf d1ea 85bb 0798 603f 33b1 0c3f
00000280: 7dc8 12bd 5e7d 2cbf caed 72bf 2745 c13d
00000290: 4e67 303f 88ad e7bd 2365 883d 2872 d2be
000002a0: ef4b fcbe 377a 563e 143d dabe 8235 91be
000002b0: cd24 51bd bc2e 0cbe 1515 a3bd a73b 40be
000002c0: 9dd1 2dbd 9f37 a43e 7ff1 8d3e 68f3 b1be
000002d0: 57b2 a3be e2f9 78bf 0f40 1dbe 6198 0d3f
000002e0: bd97 6b3e 5840 843e 69d5 f4be 1668 7bbf
000002f0: 1554 7dbe 5bd1 c03e b504 b43e 3dce 113f
00000300: 3940 febe fdfc 38bf b3df 83be 55f0 53bd
00000310: 4ad3 5b3e 5189 a13d dd76 dcbe 1dc7 71be
00000320: e6d3 d2bc bae8 343e a161 753e 04a8 03bd
00000330: 8368 e4be f53e 153e 659c 11bf 7c3c 093d
00000340: dda2 0a3f 53eb 233e a10c f93e 2e0d ecbd
00000350: 68a8 3ebf a434 b8bd d1a4 aa3e 1408 d43e
00000360: 4d00 103f 8628 9dbe 3abb 03bf 3e0b 5dbe
00000370: 9900 983e fdd2 413f 33d8 083f a304 173d
00000380: 5bee debc 4e91 6dbb 6fad 173f c3e4 643e
00000390: 907d eb3e ea3e d23e 6733 44bd 6249 483f
000003a0: 855e e13d 18c7 003f da99 bd3e 796b dd3e
000003b0: b425 9a3f dd0f c23e 1c70 e53e 551e 5d3e
000003c0: bf9f 133d 79d0 b13e fe24 23bf 5596 ddbe
000003d0: 9d8c 05bf f85a 43bf b1c6 b3be fd33 9dbf
000003e0: 05bb 23bf e435 4abf 022f 91be c3a6 613e
000003f0: fb20 90be 5bc8 79be be73 9bbe b456 4cbf

conv1.bias f4 [6]
-0.3151205 -0.40808317 -0.7029586 -0.73452336 0.31009322 -0.4886961
00000000: 7957 a1be 47f0 d0be 18f5 33bf b909 3cbf
00000010: 8ac4 9e3e 6036 fabe

conv2.weight f4 [16, 6, 5, 5]
-0.2544908 -0.32804278 -0.16083275 -0.15033297 -0.30262744 -0.052183177 -0.053372424 -0.38164133
-0.18544641 0.031811737 -0.10430305 -0.3040924 -0.47817662 -0.42883083 -0.025056146 -0.018588744
-0.17148292 -0.4522275 -0.39650193 -0.28812394 -0.05505359 -0.025027424 -0.0086194165 -0.2421691
-0.2491907 0.11293113 -0.23695341 0.06272482 0.5178819 0.49606478 0.21395732 -0.39248094
-0.18436457 0.305723 -0.08907229 0.17374055 -0.45932722 -0.45151612 0.2650421 -0.08057538
0.103674784 -0.3128987 -0.11560342 0.16193072 -0.0864799 0.035861876 0.09596306 0.14090148
0.094692826 0.21403418 0.22465509 -0.040511567 -0.32138905 0.07170076 -0.121607855 0.37980163
0.03980774 -0.45419288 -0.18442994 0.08372518 0.30270976 0.15444171 -0.39293033 -0.3018175
0.27062833 0.16365469 -0.1275758 -0.20131773 -0.50886786 0.108689025 0.13467653 -0.30279484
-0.20053135 -0.32185847 0.07691555 0.0005440143 -0.08953385 -0.25384533 0.08124252 0.24568339
-0.13593 -0.18633734 -0.22399929 -0.020131528 0.04327349 -0.051550116 -0.24757273 -0.30278248
-0.114894494 -0.046569787 -0.010566539 -0.057101857 -0.081424326 -0.18623237 -0.397202 0.09714179
0.11517763 -0.08272948 -0.12834331 -0.11300812 -0.3318202 -0.29450133 -0.20617527 0.3350639
0.36414048 -0.5228961 -0.29629818 -0.06768373 0.07416458 0.32526952 -0.5973246 -0.48942313
0.10995077 0.27696708 0.52627033 -0.3237135 -0.49257413 -0.06622622 0.3447684 0.4457882
-0.26316455 -0.43393195 0.03755013 0.49982932 0.49248788 -0.28172454 0.12696533 0.3179359
0.13822137 -0.12967011 -0.19079301 0.21645027 0.40149367 -0.2775053 -0.18229924 -0.33296147
-0.03791078 0.19026203 -0.21646336 -0.2135902 -0.28146854 0.17944537 0.25415385 -0.035151176
-0.17653145 0.034362227 0.3865488 0.32418168 0.23404737 -0.15478855 0.14953183 -0.4208703
0.21802314 0.31690016 -0.01212448 -0.10042915 0.20714393 -0.033810087 0.22542469 0.13685682
0.50666493 -0.27295175 0.28546554 0.43294457 0.03748742 0.0027763748 0.19260952 -0.037301064
0.32513437 0.09533479 -0.0040382813 0.03102698 0.21641184 -0.10007281 0.41154256 0.047941554
0.1507652 0.020460121 -0.1723674 0.121413775 0.2316161 -0.1695249 -0.22676606 -0.28048646
-0.21575181 0.044680625 -0.26434883 -0.1424614 -0.44834325 0.1559133 -0.20325252 -0.230974
-0.46963337 -0.18658713 0.07685916 -0.12901282 -0.17902909 -0.32795057 -0.18124557 -0.28552118
0.122473724 0.025945272 -0.27775612 -0.18946822 -0.03555691 0.023300609 -0.27182552 -0.44108588
-0.05792869 0.23131059 -0.41171974 -0.4763086 -0.33066437 -0.0026480046 -0.22468336 -0.42637852
-0.27423537 -0.1714606 0.07697142 0.24694365 -0.05044056 -0.3965657 0.15129645 0.06624614
0.120199576 -0.19403596 -0.067877285 0.11114302 -0.070637666 0.1902015 -0.13676429 -0.12201723
0.020778425 -0.04546055 0.09599022 -0.3148823 0.0006754898 0.059063043 0.1867677 0.11285544
-0.366778 -0.28791457 -0.0652704 0.06534757 0.07900031 -0.31353393 -0.33059874 -0.09044552
-0.100002624 -0.05295829 -0.12133307 -0.072504506 -0.079360746 -0.004914474 -0.12990771 -0.12344483
00000000: 9e4c 82be 39f5 a7be 57b1 24be e3f0 19be
00000010: fcf1 9abe 07be 55bd 0b9d 5abd 7e66 c3be
00000020: aae5 3dbe 064d 023d d69c d5bd 00b2 9bbe
00000030: 91d3 f4be b78f dbbe 8c42 cdbc 6c47 98bc
00000040: 3899 2fbe 5d8a e7be 4d02 cbbe fb84 93be
00000050: e07f 61bd 5006 cdbc 7438 0dbc 2dfb 77be
00000060: d92b 7fbe 7048 e73d eaa3 72be df75 803d
00000070: e893 043f 34fc fd3e a117 5b3e 43f3 c8be
00000080: 11ca 3cbe ba87 9c3e 886b b6bd 0be9 313e
00000090: f02c ebbe 1f2d e7be 99b3 873e b404 a5bd
000000a0: 7253 d43d 4234 a0be 7cc1 ecbd 2bd1 253e
000000b0: 601c b1bd e7e3 123d 4888 c43d 7a48 103e
000000c0: 50ee c13d c72b 5b3e fc0b 663e 75ef 25bd
000000d0: 1b8d a4be d9d7 923d 8a0d f9bd 5c75 c23e
000000e0: 710d 233d f88b e8be 34db 3cbe 1b78 ab3d
000000f0: c6fc 9a3e f825 1e3e 2a2e c9be d387 9abe
00000100: cc8f 8a3e 1895 273e 3ba3 02be 3c26 4ebe
00000110: 2a45 02bf 5a98 de3d a5e8 093e ed07 9bbe
00000120: 1758 4dbe a2ca a4be e685 9d3d 2f9c 0e3a
00000130: 865d b7bd 04f8 81be 7a62 a63d 6d94 7b3e
00000140: 3c31 0bbe 37cf 3ebe 1260 65be e0ea a4bc
00000150: 8b3f 313d 3726 53bd b583 7dbe 4e06 9bbe
00000160: ce4d ebbd f6bf 3ebd 471f 2dbc a3e3 69bd
00000170: ccc1 a6bd b3b3 3ebe 0f5e cbbe 46f2 c63d
00000180: 40e2 eb3d 136e a9bd 6e6c 03be cd70 e7bd
00000190: 56e4 a9be e1c8 96be 9c1f 53be 7f8d ab3e
000001a0: 9f70 ba3e 85dc 05bf 65b4 97be c49d 8abd
000001b0: 99e3 973d ba89 a63e 44ea 18bf ab95 fabe
000001c0: df2d e13d a1ce 8d3e a7b9 063f c7bd a5be
000001d0: ad32 fcbe 9da1 87bd 7c85 b03e 5a3e e43e
000001e0: 81bd 86be 542c debe 2ace 193d a1e9 ff3e
000001f0: 5f27 fc3e 333e 90be 3303 023e 7fc8 a23e
00000200: e789 0d3e 3ec8 04be 3e5f 43be 24a5 5d3e
00000210: 9490 cd3e 2d15 8ebe a7ac 3abe ed79 aabe
00000220: 5648 1bbd 0dd4 423e 92a8 5dbe 64b7 5abe
00000230: a51c 90be 87c0 373e 7420 823e aefa 0fbd
00000240: a9c4 34be 68bf 0c3d b9e9 c53e 24fb a53e
00000250: 1daa 6f3e e480 1ebe df1e 193e 507c d7be
00000260: 7541 5f3e bd40 a23e c1a5 46bc ccad cdbd
00000270: 8a1d 543e 727c 0abd bbd5 663e 3224 0c3e
00000280: cbb4 013f 55c0 8bbe 8a28 923e e9aa dd3e
00000290: 698c 193d d7f3 353b 6e3b 453e 00c9 18bd
000002a0: 0378 a63e e33e c33d 8f53 84bb 4b2c fe3c
000002b0: 119b 5d3e f9f2 ccbd b5b5 d23e 5d5e 443d
000002c0: 3162 1a3e fc9b a73c 1481 30be c9a7 f83d
000002d0: c52c 6d3e ef97 2dbe 5d35 68be ec9b 8fbe
000002e0: 0bee 5cbe 0803 373d bb58 87be 67e1 11be
000002f0: 3f8d e5be bca7 1f3e 6e21 50be 7384 6cbe
00000300: c973 f0be b210 3fbe 5668 9d3d f01b 04be
00000310: 6753 37be 23e9 a7be 7098 39be d52f 92be
00000320: 81d3 fa3d 2e8b d43c 0d36 8ebe f503 42be
00000330: 1fa4 11bd ebe0 be3c b72c 8bbe 02d6 e1be
00000340: a246 6dbd afdc 6c3e eecc d2be b9de f3be
00000350: d74c a9be 258a 2dbb 6513 66be 494e dabe
00000360: 9468 8cbe 5e93 2fbe 31a3 9d3d ccde 7c3e
00000370: c39a 4ebd a90a cbbe 75ed 1a3e 0eac 873d
00000380: 322b f63d 5db1 46be 3f03 8bbd f49e e33d
00000390: 7baa 90bd 2fc4 423e f00b 0cbe 2be4 f9bd
000003a0: 8437 aa3c d734 3abd 8596 c43d 4138 a1be
000003b0: 5a13 313a 17ec 713d 0840 3f3e c120 e73d
000003c0: 53ca bbbe 8a69 93be 7dac 85bd f2d4 853d
000003d0: eaca a13d 8587 a0be 3d44 a9be 803b b9bd
000003e0: 2dce ccbd cbea 58bd 797d f8bd 3e7d 94bd
000003f0: e387 a2bd 9909 a1bb 8706 05be a5d0 fcbd

conv2.bias f4 [16]
0.7344766 1.6233292 0.8391509 0.050780743 1.7249098 -0.5921277 -0.12433977 0.6433552
-2.0676947 -1.4310247 -0.41334254 -0.52992684 -0.069979645 0.4852207 0.39988694 -0.01997075
00000000: a906 3c3f 40c9 cf3f 98d2 563f 78ff 4f3d
00000010: d8c9 dc3f ae95 17bf d9a5 febd edb2 243f
00000020: 1c55 04c0 d12b b7bf a2a1 d3be 49a9 07bf
00000030: 7d51 8fbd d96e f83e fbbd cc3e b399 a3bc

fc1.weight f4 [120, 400]
-0.06245165 -0.028810326 -0.07440322 -0.09564404 -0.1577183 0.08195572 0.07997678 0.17052451
0.040903848 0.16743216 0.0662862 0.05820339 0.10073554 0.057564385 0.075946294 0.15632467
0.08191698 0.0058007482 -0.15327446 0.06947867 -0.040475808 -0.18787727 -0.11152037 -0.10052659
-0.0669777 0.13701653 0.025956519 0.13527629 0.055374663 0.08250784 0.13185984 0.052784603
0.007261203 -0.009084309 0.15168636 0.0240894 0.17087036 -0.06082525 -0.098595686 -0.007833692
-0.06404127 -0.12905721 0.006337927 0.08705175 0.116234645 0.1659598 -0.09602961 0.06250939
0.19095175 0.14817701 -0.11366473 0.013990134 0.023659347 -0.069868185 -0.04807744 0.28859097
0.09887615 0.16633703 0.10646278 -0.15826249 0.023768457 -0.02829425 0.07995548 0.012837004
0.13129768 0.103117704 0.011083849 0.0071064634 -0.09754938 0.07792326 0.013212502 0.15652116
0.057350215 0.009932515 0.087720245 -0.0524373 -0.0058781556 -0.0872967 -0.15386614 -0.067976095
-0.04268679 0.13342834 0.16504489 -0.04645668 0.0014379063 -0.094674766 0.06930372 -0.0037706848
0.014882885 0.055122085 0.01786282 0.057560004 0.020280646 -0.017482877 0.11105865 -0.044002738
-0.21780306 0.058458336 -0.04366351 -0.01795815 -0.01615617 0.036617283 0.07186041 -0.0019952238
-0.11584141 -0.021384858 -0.029621415 0.060084272 0.09296194 0.0029601338 0.12517574 0.018672839
0.0014556701 0.10801774 0.030263685 -0.044941574 0.048359226 0.10343808 0.12867425 -0.0074558253
0.054006718 -0.27320594 -0.09757133 -0.019483242 -0.03990101 -0.08915349 -0.13916096 -0.18002759
-0.17942479 -0.18053496 -0.2861904 -0.10145962 0.03252893 0.010932924 0.050681163 0.07129887
0.03719616 0.16185912 -0.0029062345 0.0740377 0.046067044 0.061739944 0.11804219 0.13819166
0.15840234 -0.14631523 -0.07649 0.12307609 0.104970485 -0.010822455 -0.1541821 -0.12626168
-0.18441053 -0.3349741 -0.19661097 -0.034575652 0.15815444 -0.0084663825 -0.06437306 -0.30328563
-0.19949573 0.12441615 0.19690806 0.084148616 -0.2597271 -0.098356076 0.034220405 0.063684225
0.020366361 -0.22475724 -0.12545294 0.04370704 -0.22719468 -0.036985233 -0.17655715 -0.014688871
0.18223728 -0.062864244 -0.0013813679 0.115415186 0.017535912 -0.11307619 0.21173629 0.12410438
-0.018495522 -0.046710506 0.060184773 0.15638813 0.055796698 -0.094647095 -0.117435485 0.051649798
0.08043405 0.077003986 0.19809459 -0.06573102 -0.010939949 -0.03643251 0.05800492 -0.012603493
-0.22793987 0.047847107 -0.15609546 -0.20233007 -0.03401215 -0.20412953 -0.074099645 -0.35232937
-0.105408415 -0.07120702 -0.15449426 -0.08778253 0.07054666 0.07051112 -0.1160916 -0.026976945
0.048176777 0.1600462 0.0899523 0.1346038 0.012348245 -0.048434943 0.07661133 -0.021277076
-0.12194953 -0.25499207 -0.13028888 0.014641191 -0.11373263 -0.19290927 -0.093012646 -0.104039
0.00038023206 -0.23169036 -0.20984565 -0.13146482 0.040442035 -0.19104949 -0.17608732 -0.1849036
-0.24904293 0.041169 0.021342298 -0.10274639 -0.06886853 0.16295579 -0.039552145 0.052753605
-0.18556131 -0.13905571 -0.16579211 -0.093539566 -0.06681555 -0.037755553 -0.04991753 -0.16246223
00000000: 4dcd 7fbd a203 ecbc b760 98bd 06e1 c3bd
00000010: e880 21be 67d8 a73d deca a33d fa9d 2e3e
00000020: cb8a 273d 5673 2b3e 0fc1 873d ae66 6e3d
00000030: 6f4e ce3d a2c8 6b3d bb89 9b3d 9313 203e
00000040: 17c4 a73d 3414 be3b fbf3 1cbe d54a 8e3d
00000050: f6c9 25bd e662 40be cb64 e4bd e3e0 cdbd
00000060: 9b2b 89bd 104e 0c3e c4a2 d43c de85 0a3e
00000070: 8bd0 623d dff9 a83d 4406 073e ab34 583d
00000080: 63ef ed3b 5bd6 14bc ab53 1b3e 2257 c53c
00000090: a4f8 2e3e e623 79bd 89ec c9bd e358 00bc
000000a0: 1228 83bd 9327 04be 63ae cf3b 3048 b23d
000000b0: 6e0c ee3d 5ef1 293e 2cab c4bd ec04 803d
000000c0: db88 433e b7bb 173e 0ec9 e8bd e036 653c
000000d0: 3fd1 c13c 0d17 8fbd daec 44bd 32c2 933e
000000e0: 947f ca3d 4154 2a3e 2809 da3d 900f 22be
000000f0: 11b6 c23c 58c9 e7bc b3bf a33d 4c52 523c
00000100: e672 063e 602f d33d 0899 353c 56dd e83b
00000110: f8c7 c7bd 3b96 9f3d 4079 583c 1547 203e
00000120: 0fe8 6a3d fdbb 223c aca6 b33d 7fc8 56bd
00000130: 8b9d c0bb 9dc8 b2bd 168f 1dbe 0d37 8bbd
00000140: 58d8 2ebd 70a1 083e 8701 293e 5c49 3ebd
00000150: 2178 bc3a d8e4 c1bd 1cef 8d3d 981d 77bb
00000160: 58d7 733c b2c7 613d 0c55 923c 0ac4 6b3d
00000170: 9923 a63c 4038 8fbc b872 e33d 373c 34bd
00000180: c407 5fbe 0272 6f3d 82d8 32bd f81c 93bc
00000190: f259 84bc 01fc 153d 8d2b 933d 4dc2 02bb
000001a0: 433e edbd 4c2f afbc 9ca8 f2bc ed1a 763d
000001b0: d462 be3d cefe 413b 122e 003e c8f7 983c
000001c0: 2fcc be3a 6838 dd3d 8ceb f73c a814 38bd
000001d0: 5314 463d 58d7 d33d 2fc3 033e ff4f f4bb
000001e0: 2636 5d3d a6e1 8bbe 7ad3 c7bd 529b 9fbc
000001f0: 3e6f 23bd 1b96 b6bd 3680 0ebe 2759 38be
00000200: 22bb 37be 28de 38be 8c87 92be 10ca cfbd
00000210: 0e3d 053d 0220 333c 0d97 4f3d 2405 923d
00000220: 005b 183d 66be 253e 8676 3ebb 14a1 973d
00000230: ccb0 3c3d 06e3 7c3d 1bc0 f13d 1d82 0d3e
00000240: 3934 223e a9d3 15be caa6 9cbd 510f fc3d
00000250: c4fa d63d ab50 31bc eae1 1dbe be4a 01be
00000260: 1dd6 3cbe ba81 abbe 6354 49be 339f 0dbd
00000270: 3df3 213e 95b6 0abc 06d6 83bd 4148 9bbe
00000280: 9c48 4cbe e5cd fe3d 44a2 493e 1c56 ac3d
00000290: f3fa 84be e96e c9bd b22a 0c3d e06c 823d
000002a0: 5bd7 a63c c326 66be bc76 00be 2706 333d
000002b0: b9a5 68be d47d 17bd 66cb 34be 97a9 70bc
000002c0: 699c 3a3e f8be 80bd 040f b5ba cc5e ec3d
000002d0: 79a7 8f3c 7d94 e7bd 66d1 583e 702a fe3d
000002e0: ec83 97bc 8453 3fbd 4f84 763d 3624 203e
000002f0: 148b 643d 56d6 c1bd 0482 f0bd bd8e 533d
00000300: 9bba a43d 44b4 9d3d 4fd9 4a3e fc9d 86bd
00000310: 793d 33bc 413a 15bd 9196 6d3d e27e 4ebc
00000320: 1269 69be 54fb 433d 7dd7 1fbe 9d2f 4fbe
00000330: 5350 0bbd 5507 51be 8ec1 97bd 8464 b4be
00000340: 5ee0 d7bd fcd4 91bd be33 1ebe 54c7 b3bd
00000350: c47a 903d 2268 903d 6fc1 edbd c1fe dcbc
00000360: 0355 453d 27e3 233e e938 b83d 94d5 093e
00000370: 4b50 4a3c b863 46bd 67e6 9c3d 434d aebc
00000380: adc0 f9bd 528e 82be 736a 05be 9be1 6f3c
00000390: a7ec e8bd 028a 45be 6a7d bebd 6612 d5bd
000003a0: e259 c739 3d40 6dbe c7e1 56be b79e 06be
000003b0: 8ca6 253d 7aa2 43be 3c50 34be 5f57 3dbe
000003c0: 1c05 7fbe d3a0 283d 0bd6 ae3c b36c d2bd
000003d0: f20a 8dbd e2dd 263e 6e01 22bd 2a14 583d
000003e0: c903 3ebe 9f64 0ebe 68c5 29be ac91 bfbd
000003f0: 97d6 88bd 91a5 1abd 5376 4cbd 805c 26be

fc1.bias f4 [120]
0.5792507 0.0147781195 -0.04539028 -0.09493239 -0.0048774374 0.06131943 -0.0029872977 -0.04251792
-0.03014475 -0.09601005 0.18597378 0.32975873 0.037344277 0.23628712 -0.15953651 -0.039347004
0.15734823 -0.0087977415 -0.09300449 0.30223978 -0.11597498 0.010627711 0.40642077 -0.2787198
0.13925466 -0.096055776 -0.07161342 -0.096111804 0.049181435 0.03550892 -0.067888476 0.021554338
-0.076804034 0.048952837 0.020906117 -0.091295056 0.040061053 0.11896836 0.6249978 -0.061600562
-0.024414228 -0.04222099 0.075428315 -0.073118426 0.12286772 -0.010269815 -0.023872558 0.038336497
0.04857425 0.060024317 -0.20933537 0.35739112 -0.030952383 0.23895456 -0.09128938 0.10104159
0.45831847 -0.1998287 0.28375146 0.15954027 -0.037558652 0.2980223 0.121172875 0.14355786
-0.25124547 0.11597467 -0.110453665 0.0005777289 -0.0055776513 0.23162997 -0.02285623 -0.07690627
0.10791769 0.43767333 -0.27142623 -0.25048655 0.010388981 0.081318304 0.22967419 0.051351152
0.010265182 -0.21844767 0.055465985 -0.029746573 0.0074049737 0.009411594 0.101937346 -0.27047956
0.027765315 0.080003135 0.21313466 0.09531246 -0.34465647 0.09339429 0.105384 -0.0069978354
-0.078512356 0.2306605 -0.07331193 0.085487925 -0.0045184623 -0.18972413 0.039273944 0.012007689
-0.043412227 -0.012248037 0.039166857 0.086399056 -0.016499938 0.14907265 -0.12607348 -0.011748653
-0.084771805 0.09640298 0.1192441 -0.03557339 -0.47134635 0.062485665 0.06067897 -0.1957879
00000000: c649 143f ed1f 723c 29eb 39bd ea6b c2bd
00000010: e9d2 9fbb 152a 7b3d 8ac6 43bb 4527 2ebd
00000020: 1ff2 f6bc eba0 c4bd e96f 3e3e 23d6 a83e
00000030: 50f6 183d 40f5 713e 8a5d 23be 532a 21bd
00000040: e51f 213e 6724 10bc 2379 bebd 2cbf 9a3e
00000050: 4a84 edbd da1f 2e3c 6216 d03e 5db4 8ebe
00000060: c698 0e3e e4b8 c4bd 0faa 92bd 44d6 c4bd
00000070: 7972 493d cd71 113d 1d09 8bbd b992 b03c
00000080: 6f4b 9dbd c582 483d 4e43 ab3c e7f8 babd
00000090: 0f17 243d afa5 f33d dbff 1f3f df50 7cbd
000000a0: 5900 c8bc ebef 2cbd 297a 9a3d 1dbf 95bd
000000b0: 12a2 fb3d ba42 28bc 6290 c3bc bb06 1d3d
000000c0: cbf5 463d 0fdc 753d 035c 56be f8fb b63e
000000d0: da8f fdbc 81b0 743e edf5 babd e5ee ce3d
000000e0: b8a8 ea3e e59f 4cbe df47 913e 865e 233e
000000f0: 1ad7 19bd 6196 983e 7c29 f83d d500 133e
00000100: 3fa3 80be 2184 ed3d 8835 e2bd bb72 173a
00000110: bbc4 b6bb 6830 6d3e fd3c bbbc 0981 9dbd
00000120: f303 dd3d b816 e03e 61f8 8abe c63f 80be
00000130: 8b36 2a3c 368a a63d b62f 6b3e 9655 523d
00000140: 4b2f 283c bfb0 5fbe 4d30 633d 16af f3bc
00000150: 6ca5 f23b 1633 1a3c 87c4 d03d 4c7c 8abe
00000160: 1674 e33c afd8 a33d f93f 5a3e 2e33 c33d
00000170: d076 b0be 8145 bf3d 91d3 d73d 194e e5bb
00000180: 16cb a0bd 4432 6c3e 9124 96bd 4b14 af3d
00000190: 9c0f 94bb 0b47 42be b7dd 203d e6bb 443c
000001a0: 05d1 31bd feab 48bc 6d6d 203d fdf1 b03d
000001b0: e12a 87bc 80a6 183e 6819 01be 6c7d 40bc
000001c0: d79c adbd ed6e c53d 4036 f43d 67b5 11bd
000001d0: 4f54 f1be f8f0 7f3d 838a 783d a07c 48be

fc2.weight f4 [84, 120]
0.1470044 0.15682071 0.050980154 -0.012843194 -0.13494371 -0.13177761 -0.0958291 -0.15720925
0.051700998 0.05530428 -0.08897225 0.014023096 -0.17152831 -0.098462686 0.018917814 -0.11005594
0.085026875 -0.07339477 -0.14376871 -0.16203429 -0.11814479 -0.019582884 0.051709924 -0.10593257
0.004402178 -0.011990605 0.0026856966 0.038411897 0.07172251 -0.005137677 -0.00032043896 0.02650915
-0.21768728 8.053033e-05 -0.030313954 0.08180552 -0.1646006 -0.07758817 0.004836429 -0.11887718
-0.15566058 -0.108219944 0.07117449 0.018421507 -0.15549779 -0.22692753 -0.08707165 -0.01964892
-0.05006293 -0.15355024 -0.032941133 -0.10168088 -0.04992817 0.2597342 -0.009140598 0.041011255
-0.062464118 -0.3160211 -0.0992476 -0.026768627 -0.06853169 0.053390432 -0.12067748 0.17444374
-0.10396465 -0.0079958895 -0.07409048 -0.20628081 -0.14856902 0.0924171 -0.087075464 0.013548242
0.18496808 0.25300846 -0.12049009 0.057938274 -0.15700343 0.023109145 -0.108374536 0.11912532
-0.038889643 -0.1597171 -0.2829446 -0.029318415 0.024879605 0.090186946 -0.25456354 -0.28303686
0.02092077 -0.17594892 -0.09759831 0.0032047997 -0.044113606 0.049108513 -0.08914811 0.21816267
-0.11451232 0.109534115 -0.17330146 -0.021358093 0.0035977527 0.04661762 -0.038534913 0.124842025
-0.18493754 -0.16786121 0.17383757 -0.02775371 0.024984976 0.03736021 -0.18185543 0.02130106
-0.2123131 -0.14490779 0.102388024 -0.029282808 -0.10838744 0.14538448 -0.122491546 0.039362244
-0.20607144 0.0921964 0.043195117 -0.055966366 0.09510435 -0.08647279 -0.004358384 0.007117012
0.1125746 0.016549708 0.16130015 0.10060989 -0.092807025 0.059724215 -0.02272254 -0.1042309
0.08226576 0.06855184 -0.057702057 -0.21082783 -0.11047788 -0.19853044 -0.04926305 -0.030086141
-0.06675433 0.16984029 0.090012595 0.107834324 -0.06601815 -0.071329534 -0.0079745455 -0.080407366
-0.0636947 -0.02006561 -0.14766324 0.0638361 0.07978748 -0.09494748 0.005707111 0.070837654
-0.08963445 0.059390623 -0.045500502 0.08792238 -0.07373518 0.20638709 0.2074482 0.10688173
-0.01921635 0.12947223 -0.092197925 -0.16321236 0.07574873 -0.021886948 -0.024777692 -0.2875217
-0.19099936 0.13583893 0.10340011 -0.13912253 -0.099344164 -0.34750783 0.087976165 -0.03815661
-0.011946476 -0.055750076 0.112730704 0.0016158978 -0.13338529 -0.19356957 -0.039188586 -0.14345948
-0.17639796 -0.3024286 0.049271103 0.014837777 0.06209762 -0.038447358 -0.27025267 -0.00011958234
-0.019371176 0.10720851 0.11623357 -0.08327077 -0.049675014 -0.0834666 -0.103961065 0.2096088
0.026411915 0.09827395 -0.1553644 -0.08908116 0.07671772 0.015831193 -0.13723637 -0.15462157
-0.050018303 -0.055337563 0.009133317 0.0042632334 0.018770898 0.15272853 0.0909218 -0.13469803
-0.12650576 0.003203624 0.03298657 -0.08942226 -0.023656856 -0.25700444 0.048063997 -0.01348933
0.012518642 -0.07485594 -0.0923442 0.046846747 -0.0961898 0.060592405 0.047293853 -0.027054243
0.01583885 -0.0070278314 0.03593769 -0.10416839 0.028171252 0.21305908 -0.017195174 -0.043368977
0.041847024 0.084395744 -0.049098764 0.16690834 0.110615715 0.18642299 -0.06346338 -0.04444477
00000000: 5288 163e 9c95 203e 91d0 503d 436c 52bc
00000010: af2e 0abe b6f0 06be 0c42 c4bd 76fb 20be
00000020: 6dc4 533d be86 623d 1537 b6bd 21c1 653c
00000030: 1ea5 2fbe cea6 c9bd 88f9 9a3c 0265 e1bd
00000040: 9222 ae3d ff4f 96bd 1b38 13be 51ec 25be
00000050: e5f5 f1bd 496c a0bc c9cd 533d 2df3 d8bd
00000060: 2540 903b 3e74 44bc 8302 303b cb55 1d3d
00000070: 40e3 923d f559 a8bb 9700 a8b9 b829 d93c
00000080: 6ae9 5ebe 64e2 a838 f854 f8bc a789 a73d
00000090: 0f8d 28be 8ce6 9ebd e87a 9e3b e175 f3bd
000000a0: 7d65 1fbe 6ba2 ddbd eec3 913d b3e8 963c
000000b0: d03a 1fbe b15f 68be 9f52 b2bd c6f6 a0bc
000000c0: c90e 4dbd 463c 1dbe 48ed 06bd 113e d0bd
000000d0: 7b81 4cbd e2fb 843e 72c2 15bc 6bfb 273d
000000e0: 60da 7fbd 85cd a1be 5342 cbbd e149 dbbc
000000f0: 585a 8cbd edaf 5a3d c125 f7bd 61a1 323e
00000100: 6beb d4bd 3101 03bc c0bc 97bd 473b 53be
00000110: 7a22 18be 2d45 bd3d 9f54 b2bd 72f9 5d3c
00000120: 4668 3d3e 538a 813e 82c3 f6bd af50 6d3d
00000130: 82c5 20be 644f bd3c 78f3 ddbd faf7 f33d
00000140: bf4a 1fbd e18c 23be 1dde 90be 2c2d f0bc
00000150: 50d0 cb3c efb3 b83d 2756 82be 35ea 90be
00000160: 0962 ab3c f42b 34be 9fe1 c7bd 9e07 523b
00000170: 78b0 34bd 0226 493d 4993 b6bd 0966 5f3e
00000180: 6f85 eabd 6c53 e03d f075 31be 2bf7 aebc
00000190: 46c8 6b3b 1ef2 3e3d c9d6 1dbd 2dad ff3d
000001a0: 4460 3dbe cfe3 2bbe 7a02 323e c05b e3bc
000001b0: 4bad cc3c 0507 193d 4f38 3abe 907f ae3c
000001c0: 9b68 59be b562 14be d0b0 d13d 80e2 efbc
000001d0: 3cfa ddbd abdf 143e d9dc fabd 4e3a 213d
000001e0: 6404 53be 77d1 bc3d 5ded 303d fd3c 65bd
000001f0: 12c6 c23d a518 b1bd c6d0 8ebb d335 e93b
00000200: 838d e63d 4193 873c de2b 253e 8f0c ce3d
00000210: 9c11 bebd 61a1 743d 9f24 babc 0377 d5bd
00000220: f37a a83d e864 8c3d fe58 6cbd 40e3 57be
00000230: 3a42 e2bd 904b 4bbe 0dc8 49bd 3677 f6bc
00000240: 7fb6 88bd 9dea 2d3e 8658 b83d 3ed8 dc3d
00000250: 8634 87bd 3815 92bd aba7 02bc 9eac a4bd
00000260: 5e72 82bd a260 a4bc 0835 17be 80bc 823d
00000270: 9e67 a33d d373 c2bd b802 bb3b 5513 913d
00000280: 4492 b7bd 9543 733d bc5e 3abd a610 b43d
00000290: 7802 97bd 2357 533e 4d6d 543e cfe4 da3d
000002a0: 9b6b 9dbc 5e94 043e 44d2 bcbd 2421 27be
000002b0: 2622 9b3d 424c b3bc 96fa cabc 0b36 93be
000002c0: 5695 43be 5c19 0b3e 70c3 d33d 2376 0ebe
000002d0: f474 cbbd 8cec b1be d92c b43d 1b4a 1cbd
000002e0: 27bb 43bc 315a 64bd 5bdf e63d 88cc d33a
000002f0: 2796 08be 1a37 46be 3684 20bd 0be7 12be
00000300: aba1 34be ecd7 9abe 7fd0 493d 261a 733c
00000310: 135a 7e3d fa7a 1dbd 8f5e 8abe 48c8 fab8
00000320: 4db0 9ebc 2390 db3d de0b ee3d de89 aabd
00000330: 0778 4bbd 89f0 aabd 8ae9 d4bd b0a3 563e
00000340: cd5d d83c da43 c93d d817 1fbe 2f70 b6bd
00000350: 2e1e 9d3d 6bb0 813c b187 0cbe 1e55 1ebe
00000360: fedf 4cbd a4a9 62bd e8a3 153c 98b2 8b3b
00000370: 6dc5 993c de64 1c3e 3535 ba3d 48ee 09be
00000380: ba8a 01be e4f3 513b ed1c 073d 0523 b7bd
00000390: 06cc c1bc 1696 83be c1de 443d 5a02 5dbc
000003a0: fd1a 4d3c 124e 99bd f51e bdbd 60e2 3f3d
000003b0: 28ff c4bd be2f 783d 33b7 413d dca0 ddbc
000003c0: 7ac0 813c b949 e6bb 6633 133d 3d56 d5bd
000003d0: 66c7 e63c 292c 5a3e e5dc 8cbc aba3 31bd
000003e0: c967 2b3d add7 ac3d c91b 49bd 05ea 2a3e
000003f0: 7e8a e23d abe5 3e3e 17f9 81bd b80b 36bd

fc2.bias f4 [84]
0.81632465 0.40011838 0.3079905 0.17245723 0.07825312 0.17552592 -0.0862808 0.044839583
-0.045885906 0.04234108 0.781862 -0.25136903 -0.012455334 0.06637482 0.058539387 0.15059547
0.24617068 0.5635935 0.34634867 0.04128487 0.27611578 0.36071402 0.12315042 -0.007268264
-0.061269592 0.52992254 0.08801171 0.8349944 0.02716706 0.048879288 -0.018834073 -0.18923527
0.51738006 0.09286282 0.4884498 0.36156684 0.5152601 0.14307486 0.08192232 0.3734154
-0.077886544 0.2352106 0.52588964 0.19561696 0.07302414 0.0095437495 0.4690085 -0.02212778
0.044703126 0.73029304 0.10401987 -0.1464816 0.103112325 0.019132435 0.5089737 0.08039764
0.3844213 0.18756558 -0.043968763 0.5513402 0.46156934 -0.07485317 0.10613191 0.04130626
0.15682545 0.48493618 0.38894084 -0.14714465 -0.09650991 0.12739669 0.06473643 0.6593821
-0.14938876 0.23193891 0.58583534 0.71762127 0.04614491 -0.0058204615 0.47168985 0.22656286
0.20398213 -0.04693478 0.27430105 0.6875744
00000000: a7fa 503f 51dc cc3e eeb0 9d3e a198 303e
00000010: 2c43 a03d 11bd 333e fdb3 b0bd b6a9 373d
00000020: dcf2 3bbd d76d 2d3d 1c28 483f 71b3 80be
00000030: 7511 4cbc 86ef 873d ffc6 6f3d b335 1a3e
00000040: 2b14 7c3e aa47 103f 9d54 b13e 531a 293d
00000050: 0c5f 8d3e 82af b83e 4a36 fc3d 9e2a eebb
00000060: d3f5 7abd 01a9 073f 7c3f b43d 31c2 553f
00000070: 748d de3c a635 483d ea49 9abc e4c6 41be
00000080: 0573 043f dd2e be3d 1816 fa3e 4a1f b93e
00000090: 16e8 033f 3782 123e e4c6 a73d 4e30 bf3e
000000a0: fb82 9fbd 0cdb 703e b4a0 063f d04f 483e
000000b0: ae8d 953d 635d 1c3c e221 f03e 5145 b5bc
000000c0: a01a 373d 7cf4 3a3f 5f08 d53d 46ff 15be
000000d0: 8e2c d33d a0bb 9c3c 1a4c 023f 85a7 a43d
000000e0: ded2 c43e 3111 403e 9718 34bd a224 0d3f
000000f0: d152 ec3e 9e4c 99bd b05b d93d c130 293d
00000100: da96 203e 8e49 f83e 4123 c73e 16ad 16be
00000110: fda6 c5bd 4774 023e 8994 843d 44cd 283f
00000120: 5ef9 18be 6581 6d3e 4ef9 153f 07b6 373f
00000130: 7202 3d3d 92b9 bebb 5581 f13e 1800 683e
00000140: b1e0 503e af3e 40bd 3071 8c3e e004 303f

fc3.weight f4 [10, 84]
-0.35554317 0.2948256 0.07996652 0.076539785 0.1402549 0.18086644 0.08066391 -0.32925767
0.18881084 0.24426293 0.119938985 -0.10359341 0.14470819 0.15521331 0.11845572 0.060887188
-0.04541581 0.11683894 -0.24289033 -0.060917888 0.033889692 -0.12458613 0.069161296 -0.030142015
0.10604286 0.1374946 0.14240108 0.14933091 0.22153115 -0.0516493 -0.07688043 0.045030516
0.23865207 -0.18575747 -0.1745501 0.13308391 -0.16546403 0.18706524 0.27220678 -0.06299985
0.0069056167 -0.38219044 0.07595545 0.16545665 0.21243376 -0.035297964 -0.19050168 0.028937047
0.03990501 -0.16125628 -0.20120572 0.08866125 0.23899418 -0.0004969275 -0.22453782 0.2966154
-0.05366552 0.16356537 0.08983706 -0.022798877 -0.23120391 -0.12905055 -0.06196155 -0.13819814
0.13813226 -0.0867157 0.13182384 -0.055164304 -0.12224525 -0.12945151 0.29348648 0.051421642
0.2710805 -0.08397187 -0.17515038 -0.21331303 -0.066681854 0.15385103 -0.035085242 0.110446736
0.11376807 0.079920575 0.13924657 -0.06315158 -0.37950704 0.19377448 0.09747964 -0.13704413
-0.061456386 0.15243655 -0.2534639 0.13349122 -0.05559291 0.35627976 0.009346731 0.07881699
0.27847502 0.26112223 0.1204585 0.13131763 0.33742616 0.02441291 -0.06599347 0.14784399
-0.05747188 0.05402387 -0.22389501 0.21355993 0.11120832 -0.25027144 0.23363042 -0.06536773
-0.27800143 0.15776227 0.0858288 0.10907324 0.31238434 0.05165649 -0.008956029 -0.3647765
-0.12929551 -0.2853879 -0.20667014 0.24488956 0.24350272 0.16807649 0.17094083 -0.10604561
0.124047026 -0.058506522 -0.024813652 -0.1503569 -0.18060826 -0.3290815 -0.018201374 -0.075282045
0.011134231 0.028797412 -0.22330593 -0.29556352 -0.32389858 0.11872005 -0.057080228 -0.18112795
0.15956871 0.20788686 -0.19708493 -0.047805455 0.27182344 -0.09946498 -0.094872 -0.025319837
0.034041535 -0.083372824 -0.17089747 -0.17528556 -0.13269043 -0.15106212 -0.14553551 -0.20801292
0.11713234 0.05494693 -0.23607206 0.12911056 -0.048824772 -0.106191546 0.11951168 -0.1079935
0.23223214 -0.045825437 0.022438005 0.107813016 0.18905513 -0.020034002 0.13818 -0.09402233
0.20852275 -0.003640292 -0.092746474 0.14045045 0.10056363 -0.052478086 0.0031112344 -0.13067801
0.01036745 0.096247055 0.08926652 0.07725299 0.031321757 -0.030413408 -0.21831506 0.13967995
-0.06169487 -0.018250585 0.0035195374 0.18191426 -0.0039038276 0.05633656 0.004386522 0.0094316285
-0.055495944 -0.21330994 -0.10704978 0.2056571 0.017021809 0.19356579 0.0034403515 -0.26934147
0.009811805 0.08948665 -0.13034092 0.12725328 -0.1434712 0.15620804 0.100773305 0.12722407
-0.06445519 -0.054663774 -0.13386157 0.22875012 0.0442002 0.18380845 0.14676526 0.1771069
0.18388908 -0.16777907 0.14406225 0.33985287 -0.04071781 0.06891001 0.21370405 0.13075879
-0.1326396 0.2982325 0.29376265 0.15897919 -0.07601975 -0.06983582 0.2363671 0.027724057
0.042593405 -0.0040385397 0.15488183 0.015874747 0.1408348 0.17135437 -0.094330214 -0.058481224
0.21927121 -0.044589527 -0.26665217 -0.24016248 0.26964304 -0.1003528 -0.145279 0.03299435
00000000: c109 b6be 62f3 963e 7dc5 a33d e4c0 9c3d
00000010: fb9e 0f3e 0d35 393e 1f33 a53d 7694 a8be
00000020: a157 413e 1020 7a3e 92a2 f53d c828 d4bd
00000030: 622e 143e 3df0 1e3e ea98 f23d d864 793d
00000040: ee05 3abd 4149 ef3d 3eb8 78be 0985 79bd
00000050: ebcf 0a3d 0327 ffbd 70a4 8d3d 63ec f6bc
00000060: 002d d93d 62cb 0c3e 97d1 113e 34ea 183e
00000070: 10d9 623e 378e 53bd 7d73 9dbd eb71 383d
00000080: 3561 743e 3537 3ebe 43bd 32be 2647 083e
00000090: 676f 29be 088e 3f3e b05e 8b3e 1106 81bd
000000a0: 8348 e23b 77ae c3be 888e 9b3d 786d 293e
000000b0: 3c88 593e 9994 10bd df12 43be 630d ed3c
000000c0: 7073 233d 5e20 25be df08 4ebe 0894 b53d
000000d0: e4ba 743e 3d44 02ba 3eed 65be f9dd 973e
000000e0: 60d0 5bbd ae7d 273e 7efc b73d b6c4 babc
000000f0: b8c0 6cbe d425 04be 65cb 7dbd d083 0dbe
00000100: 8b72 0d3e 0098 b1bd d4fc 063e f7f3 61bd
00000110: b85b fabd f08e 04be dc43 963e 809f 523d
00000120: 10cb 8a3e 72f9 abbd 9f5a 33be bb6e 5abe
00000130: 7f90 88bd 208b 1d3e 8bb5 0fbd e631 e23d
00000140: 3cff e83d 66ad a33d a796 0e3e 9e55 81bd
00000150: bf4e c2be d16c 463e 68a3 c73d 4c55 0cbe
00000160: b1b9 7bbd 5418 1c3e 05c6 81be ecb1 083e
00000170: 64b5 63bd 4d6a b63e 0823 193c cd6a a13d
00000180: 4794 8e3e d0b1 853e f2b2 f63d 2178 063e
00000190: 1fc3 ac3e 95fd c73c 9627 87bd 6a64 173e
000001a0: a267 6bbd 2248 5d3d bc44 65be 74af 5a3e
000001b0: 30c1 e33d 9423 80be d03c 6f3e 84df 85bd
000001c0: 3456 8ebe 6f8c 213e 03c7 af3d ca61 df3d
000001d0: d7f0 9f3e c195 533d 4fbc 12bc fcc3 babe
000001e0: 0b66 04be 5d1e 92be 56a1 53be 54c4 7a3e
000001f0: c758 793e 3e1c 2c3e 1d0b 2f3e 712e d9bd
00000200: 5e0c fe3d 89a4 6fbd 0046 cbbc 29f7 19be
00000210: 5ff1 38be 5f7d a8be 0c1b 95bc 792d 9abd
00000220: 5a6c 363c 8de8 eb3c 4faa 64be 1a54 97be
00000230: 09d6 a5be 7f23 f33d f5cc 69bd 9b79 39be
00000240: fb65 233e 4be0 543e a2d0 49be a7cf 43bd
00000250: 712c 8b3e 4cb4 cbbd 404c c2bd 8c6b cfbc
00000260: 236f 0b3d 5fbf aabd bfff 2ebe 0f7e 33be
00000270: 00e0 07be 07b0 1abe 4307 15be 5701 55be
00000280: 15e3 ef3d 0810 613d e0bc 71be 8f35 043e
00000290: 7cfc 47bd f47a d9bd 8ac2 f43d b22b ddbd
000002a0: 43ce 6d3e 74b3 3bbd e8cf b73c 12cd dc3d
000002b0: ab97 413e 591e a4bc 0f7f 0d3e c88e c0bd
000002c0: fd86 553e f791 6ebb ddf1 bdbd 3ed2 0f3e
000002d0: 4ef4 cd3d 43f3 56bd dae5 4b3b 75d0 05be
000002e0: 3ddc 293c 2d1d c53d 5ed1 b63d d136 9e3d
000002f0: 3e4b 003d 8a25 f9bc fc8d 5fbe 4308 0f3e
00000300: c3b3 7cbd 4082 95bc 0aa8 663b bb47 3a3e
00000310: 5cd7 7fbb 2ac1 663d d0bc 8f3b 1e87 1a3c
00000320: b74f 63bd ec6d 5abe ea3c dbbd c697 523e
00000330: 5271 8b3c 1c36 463e 8577 613b 20e7 89be
00000340: b1c1 203c c744 b73d 1778 05be af4e 023e
00000350: 1dea 12be 00f5 1f3e 3c62 ce3d 0747 023e
00000360: 1501 84bd 1fe7 5fbd 0213 09be 793d 6a3e
00000370: 450b 353d 4838 3c3e a249 163e 835b 353e
00000380: 6b4d 3c3e 47ce 2bbe 0e85 133e 3201 ae3e
00000390: b8c7 26bd b120 8d3d 3cd5 5a3e a2e5 053e
000003a0: add2 07be eeb1 983e 0f68 963e 71cb 223e
000003b0: 3eb0 9bbd 1506 8fbd 380a 723e 901d e33c
000003c0: 6c76 2e3d ba55 84bb 5899 1e3e c20b 823c
000003d0: ff36 103e 8577 2f3e 3330 c1bd 028a 6fbd
000003e0: a288 603e 82a3 36bd a286 88be 27ed 75be
000003f0: a70e 8a3e c585 cdbd 05c4 14be 1525 073d

fc3.bias f4 [10]
-0.26930442 -1.0101613 -0.16748598 0.5979647 0.8069888 -0.1353314 0.30953974 -0.2452194
0.13869384 -0.12312311
00000000: 45e2 89be f74c 81bf 7281 2bbe 3714 193f
00000010: d196 4e3f 5194 0abe fe7b 9e3e cb1a 7bbe
00000020: c205 0e3e f827 fcbd
